Day2/camp-ai-28/d2/weight/camp-ai-28-submit-d2-weight.pth (torch, 52514 bytes, 11 tensors)

layer1.weight f4 [128, 10]
0.6289735 -0.6817432 0.2354659 0.13813902 0.371345 0.4736589 1.0389633 -0.3913721
-0.26623407 -0.032469142 0.42213467 0.12773545 0.33668587 0.42736998 0.31561416 0.17199974
0.28362587 -0.02285641 -0.0046346807 0.34268215 0.7419848 0.14200534 -0.8100331 0.65848404
0.27826408 -1.2813685 -1.1991616 -0.5014436 -0.8513045 -1.316293 0.11063523 -0.5375622
-0.36264992 1.0125245 0.24970144 -0.06830559 0.7747436 0.22797367 -0.33292517 -0.18912755
0.9161378 0.21957904 8.1291204e-05 -0.18123221 -0.13303888 0.22264007 0.68338436 0.70324504
-0.6041865 0.033594254 0.650058 -0.6600651 -0.46988323 0.74093825 -0.05511951 -1.0934738
-1.0082958 -0.000233781 0.03435666 -0.6481489 0.28143463 0.2600658 -0.48244092 0.37811634
-0.37955943 -0.5285966 -0.38181716 0.33776197 -0.2291074 0.097646445 -0.09143492 0.40594044
-0.72596407 1.1129386 -0.40390107 0.28865486 0.2312863 -0.34235984 0.020862522 -0.70223165
0.07444883 0.10761576 0.2312278 0.1731253 0.25024754 0.21585111 0.91405207 0.20396659
-0.35974655 -0.46784213 0.7797424 0.07089328 0.32550278 0.79116786 -0.26785913 0.22520792
0.3043839 0.28566736 -0.08568186 -0.3339273 0.4387516 -0.0487565 -0.5090069 0.6156516
-0.6030826 -0.78806627 -0.62912315 0.60814303 -0.383282 0.14828287 0.13888055 0.3889558
-0.03426621 -1.02119 0.2338353 0.17735697 0.35151258 0.45133033 0.30721334 -0.39376178
0.40554714 -0.42022902 0.18471462 -0.25270495 0.1309625 -0.0035463185 0.38285008 -0.30313796
0.102224715 0.2490431 0.6839141 -0.9560484 0.5031983 0.71891797 -0.7554433 0.69748646
-0.9352641 -0.18871659 -0.48474887 0.3970411 0.6700111 0.3832105 0.42037243 0.8841181
-0.4258465 -0.6398833 -0.4510739 -0.35934308 -0.99512327 -0.5010089 0.18795769 -0.50507385
0.021953134 1.1405313 -0.32154474 -0.61294395 1.1110132 -0.037446223 0.70060796 -0.010147622
0.46399167 0.28882146 0.35028633 -0.0033747405 -0.39820263 -0.1883311 0.047018174 -0.21491662
0.018100766 0.07108998 -0.068612635 0.26198968 0.26713598 0.8700879 -0.3307672 0.53092563
-0.39150906 0.6688717 0.19152741 -0.24045618 0.16776636 -0.5841667 0.3799244 1.8413124
-0.41692737 0.80538344 0.5686392 -0.5861612 0.7591896 -0.31311524 0.20972776 0.21256104
-0.11231914 0.04320928 0.15733668 -0.6425528 0.39255154 -0.1681391 -0.10644094 0.07678363
0.17423289 -0.096674964 -0.6133776 0.22161938 -0.5259754 -0.66259974 0.29617202 0.101301156
-0.2630683 -0.39353773 0.48849165 0.3357107 0.1785764 0.53603035 -0.3167405 0.4201723
1.0319903 -0.27893054 0.3111834 0.3603521 0.039832395 0.30603474 0.17900428 0.77731794
0.18728739 0.4483309 -0.017232707 -0.00267782 -0.04568537 0.46735585 0.27318624 -0.32533208
-0.002629442 -0.6789467 -0.44966292 -0.022985341 0.42052093 0.12584253 0.47210032 -0.08188905
0.2353205 -0.52992654 0.18528461 1.2465518 0.2879071 -0.7495799 0.114255205 -0.58386207
0.045973394 -0.09357249 0.30028793 0.082596675 0.80634916 -0.92633617 -0.0042910203 0.6162072
00000000: 6804 213f b986 2ebf f91d 713e 5174 0d3e
00000010: ef20 be3e 6b83 f23e c0fc 843f ed61 c8be
00000020: d54f 88be 5dfe 04bd 0922 d83e 15cd 023e
00000030: 1762 ac3e 3dd0 da3e 2e98 a13e b320 303e
00000040: 6937 913e 5e3d bbbc 85de 97bb 0974 af3e
00000050: b7f2 3d3f d969 113e 545e 4fbf 6992 283f
00000060: a178 8e3e e203 a4bf 217e 99bf 9c5e 00bf
00000070: 17ef 59bf 4a7c a8bf b994 e23d ad9d 09bf
00000080: 40ad b9be 679a 813f bcb1 7f3e cde3 8bbd
00000090: 9955 463f ee71 693e 2b75 aabe a7aa 41be
000000a0: 0288 6a3f 54d9 603e e27a aa38 f094 39be
000000b0: 583b 08be c2fb 633e 47f2 2e3f de07 343f
000000c0: f7ab 1abf 219a 093d 336a 263f 07fa 28bf
000000d0: 8994 f0be 21ae 3d3f ffc4 61bd f3f6 8bbf
000000e0: d60f 81bf 1c23 75b9 92b9 0c3d 16ed 25bf
000000f0: 3318 903e 5827 853e 7f02 f7be 7798 c13e
00000100: 9d55 c2be 1b52 07bf 8a7d c3be 23ef ac3e
00000110: 219b 6abe dcfa c73d 3b42 bbbd 6dd7 cf3e
00000120: c8d8 39bf c674 8e3f 1fcc cebe 92ca 933e
00000130: 51d6 6c3e ca49 afbe e1e7 aa3c 74c5 33bf
00000140: a178 983d a765 dc3d fbc6 6c3e c247 313e
00000150: 7220 803e 1308 5d3e 51ff 693f 9edc 503e
00000160: b330 b8be 0189 efbe 339d 473f 7f30 913d
00000170: 4da8 a63e fa89 4a3f d524 89be e89c 663e
00000180: 35d8 9b3e fe42 923e f979 afbd 85f8 aabe
00000190: 0da4 e03e e5b4 47bd 474e 02bf 589b 1d3f
000001a0: 9f63 1abf b6be 49bf 370e 21bf 43af 1b3f
000001b0: 8a3d c4be 77d7 173e b436 0e3e 3725 c73e
000001c0: ba5a 0cbd 5bb6 82bf 8572 6f3e 119d 353e
000001d0: 75f9 b33e c514 e73e 114b 9d3e 259b c9be
000001e0: e0a3 cf3e 4228 d7be d425 3d3e 8b62 81be
000001f0: 091b 063e 5a69 68bb ed04 c43e e634 9bbe
00000200: 315b d13d 2805 7f3e ff14 2f3f 97bf 74bf
00000210: 9bd1 003f 020b 383f bb64 41bf 798e 323f
00000220: 786d 6fbf ec3e 41be 0131 f8be f948 cb3e
00000230: d985 2b3f 2b34 c43e 0e3b d73e 9055 623f
00000240: 8d08 dabe 64cf 23bf 29f3 e6be d1fb b7be
00000250: 66c0 7ebf 1f42 00bf fb77 403e 854c 01bf
00000260: 0fd7 b33c eefc 913f 83a1 a4be e5e9 1cbf
00000270: ae35 8e3f 3661 19bd 0b5b 333f 3642 26bc
00000280: 5190 ed3e 68e0 933e bb58 b33e c02a 5dbb
00000290: 37e1 cbbe ded9 40be 2196 403d 1a13 5cbe
000002a0: 0f48 943c a097 913d c884 8cbd 8323 863e
000002b0: 0cc6 883e 15be 5e3f 525a a9be beea 073f
000002c0: e073 c8be 2d3b 2b3f c31f 443e 253a 76be
000002d0: f2ca 2b3e f38b 15bf 7385 c23e 20b0 eb3f
000002e0: 8177 d5be 9c2d 4e3f 5792 113f a90e 16bf
000002f0: 405a 423f a450 a0be e0c2 563e 9aa9 593e
00000300: 9407 e6bd 37fc 303d de1c 213e 577e 24bf
00000310: 84fc c83e a82c 2cbe b5fd d9bd bc40 9d3d
00000320: 1b6a 323e 86fd c5bd 5006 1dbf 31f0 623e
00000330: 53a6 06bf 23a0 29bf dca3 973e fb76 cf3d
00000340: e3b0 86be c77d c9be 941b fa3e 46e2 ab3e
00000350: bbdc 363e 4939 093f d02b a2be d320 d73e
00000360: 4218 843f fccf 8ebe 6e53 9f3e 1280 b83e
00000370: 4b27 233d 96b0 9c3e e64c 373e 4ffe 463f
00000380: 44c8 3f3e a18b e53e 9b2b 8dbc 5d7e 2fbb
00000390: 9520 3bbd 4449 ef3e 11df 8b3e ed91 a6be
000003a0: b752 2cbb 73cf 2dbf 383a e6be c14b bcbc
000003b0: 854e d73e dddc 003e 22b7 f13e 72b5 a7bd
000003c0: dbf7 703e 44a9 07bf 40bb 3d3e 028f 9f3f
000003d0: 8f68 933e 78e4 3fbf a2fe e93d fc77 15bf
000003e0: 994e 3c3d efa2 bfbd 57bf 993e 7228 a93d
000003f0: e66c 4e3f 5e24 6dbf b09b 8cbb c1bf 1d3f

layer1.bias f4 [128]
-0.2677695 0.461214 0.48431987 0.3049901 0.39616066 0.17361458 0.09993548 0.033938352
0.5717862 -0.014979655 0.17126556 0.36383486 0.47874895 0.54201823 0.20892894 0.41545054
0.15772495 -0.1551275 -0.08836095 0.20377831 0.40914887 0.23027284 0.07827907 0.052263092
-0.2185293 0.43388107 0.11179098 0.63247085 0.73840207 -0.13101257 0.26336884 -0.07833715
0.11397579 0.046015676 0.16262257 0.06701128 0.45743528 -0.07996965 -0.056235842 0.42640948
0.64562625 0.5793939 0.5318954 -0.20133764 -0.13464059 0.27626482 0.34331423 0.19030714
0.8396696 0.24182087 0.447534 0.103660874 0.30124635 -0.089520015 0.13377154 -0.29165578
-0.14086977 0.20584334 -0.05594969 0.36875758 0.06995933 0.22244743 0.60037637 0.35373494
-0.14255983 0.33258796 0.17002988 0.45941705 0.426046 -0.019771516 0.48920095 0.3892079
0.33157617 0.104377545 0.7695085 0.11838847 -0.27884823 0.7249321 -0.119414285 0.45817876
-0.12449 0.0093839895 -0.3206001 0.23917241 0.27111775 -0.42116764 0.47511095 0.19834103
0.8476512 0.2489745 0.021334307 0.5362212 0.22331023 0.57597554 0.28672618 0.111429505
0.75345737 0.52264255 0.37079614 0.19814122 0.48217326 0.40411368 0.52477837 0.3125819
0.20892368 0.5402068 0.15487997 -0.2821414 0.11723109 -0.2942775 0.34981364 0.38911074
-0.09468848 0.20774953 0.08095825 -0.031438444 -0.25780156 0.4745301 -0.087602526 0.060163543
0.16756327 0.26179203 -0.14051156 0.24136297 -0.253244 0.083345875 0.7765242 0.2733241
00000000: 1519 89be 3e24 ec3e c6f8 f73e aa27 9c3e
00000010: 92d5 ca3e 05c8 313e f9aa cc3d f102 0b3d
00000020: 9560 123f 3a6d 75bc 3d60 2f3e 9048 ba3e
00000030: 951e f53e b5c1 0a3f 78f1 553e efb5 d43e
00000040: a682 213e bed9 1ebe 96f6 b4bd 43ab 503e
00000050: f67b d13e a5cc 6b3e c750 a03d d311 563d
00000060: 25c6 5fbe a925 de3e abf2 e43d 9ce9 213f
00000070: eb07 3d3f 2928 06be 48d8 863e 3a6f a0bd
00000080: 246c e93d ef7a 3c3d 8886 263e 363d 893d
00000090: f534 ea3e 21c7 a3bd 8e57 66bd 5852 da3e
000000a0: c347 253f 2953 143f 4c2a 083f 742b 4ebe
000000b0: 39df 09be 9572 8d3e e2c6 af3e e0df 423e
000000c0: 96f4 563f e49f 773e 2d23 e53e 274c d43d
000000d0: f63c 9a3e 4556 b7bd 68fb 083e e853 95be
000000e0: 2a40 10be 99c8 523e 812b 65bd cbcd bc3e
000000f0: d646 8f3d 42c9 633e 44b2 193f bf1c b53e
00000100: 34fb 11be f848 aa3e 501c 2e3e b638 eb3e
00000110: b422 da3e e0f7 a1bc 8c78 fa3e 4246 c73e
00000120: 5ac4 a93e e5c3 d53d 82fe 443f a775 f23d
00000130: 32c5 8ebe 2695 393f 7a8f f4bd 6896 ea3e
00000140: 9df4 febd 4ebf 193c b225 a4be 9de9 743e
00000150: f2cf 8a3e 49a3 d7be be41 f33e e919 4b3e
00000160: abff 583f 2cf3 7e3e 49c5 ae3c cb45 093f
00000170: 70ab 643e 2273 133f c6cd 923e 2735 e43d
00000180: 95e2 403f e7cb 053f fed8 bd3e 88e5 4a3e
00000190: 6adf f63e fde7 ce3e e057 063f bc0a a03e
000001a0: 17f0 553e fe4a 0a3f db98 1e3e d674 90be
000001b0: db16 f03d 8aab 96be c61a b33e 8639 c73e
000001c0: 09ec c1bd 4bbc 543e 70cd a53d 99c5 00bd
000001d0: 91fe 83be 9cf5 f23e f468 b3bd 0c6e 763d
000001e0: b595 2b3e 9b09 863e 43e2 0fbe db27 773e
000001f0: 33a9 81be 3eb1 aa3d 4aca 463f 23f1 8b3e

layer2.weight f4 [64, 128]
0.40769336 0.14159638 -0.74618644 0.22317827 0.34848073 0.53971374 0.038513422 -0.1764452
0.3344172 0.33873147 0.36833566 0.3225038 0.18222946 -0.52938735 0.31910452 0.41961497
-0.035414714 0.34466097 -0.93534917 -0.117972784 0.16183566 0.4638783 0.21717794 0.20272365
0.40551573 0.6461678 -0.037933316 -0.42107368 0.46428332 0.027493345 0.26684663 0.040136248
0.15632649 0.09714026 0.1943487 -0.5070711 0.14818221 0.12772414 -0.028763436 0.35145903
0.23822543 0.25127813 -0.07765587 0.51119554 -0.4871528 -0.04546346 0.495073 -0.07283877
-0.43491128 -0.071530834 0.3055947 -0.6336029 0.32459277 0.14536057 -0.55220395 0.253491
0.32211378 -0.54579663 -0.069744624 0.23511948 0.3050046 0.1332265 -0.2170933 0.5368439
0.3866528 -0.0010708632 0.22739705 0.1630172 0.22279881 0.5974431 -0.14512996 -0.5561708
0.014638071 -0.4516837 -0.25979605 0.24551617 0.4435208 -0.53834134 0.3667226 0.018292082
-1.1049811 0.38323778 0.80428874 0.3037145 0.17392574 0.716961 0.31297883 -0.67575866
-0.41483575 0.2540216 0.29363695 -0.39038748 0.4259443 0.28226924 0.34851912 0.15687023
-0.3727653 -0.22051446 0.27991122 0.10896735 -0.5000918 0.30556187 0.41956347 -0.06270474
-0.34989628 0.23875043 0.1868656 0.73388517 0.16736281 0.35383263 0.008297193 0.21606514
0.29250026 0.044317715 0.23200305 0.23776224 0.12964094 0.21728887 0.39369002 -0.71283394
0.056794044 0.3124726 0.29552224 0.075117104 0.3850626 -0.21327074 -0.33210215 -0.051702272
0.020686733 -0.07121216 -0.0074091135 -0.093383834 -0.074999236 -0.011142079 -0.075860284 -0.0003513002
-0.09910544 0.055052616 -0.041747537 -0.053333435 -0.04853564 0.00037933048 -0.092819385 -0.05144037
-0.078130595 -0.07107017 0.0046814093 -0.08194834 -0.032886554 -0.03400137 0.023774264 -0.0759999
-0.0064123343 0.010341281 -0.07424581 0.05155165 -0.07499874 -0.08638563 -0.029764494 -0.10997495
-0.05592673 -0.059823047 0.05820992 -0.0031541304 -0.111996405 0.04206576 -0.08779958 -2.3759747e-05
-0.012423454 -0.041215573 -0.06715862 -0.016258797 -0.03592811 0.03775931 0.050430115 0.009796469
-0.0115883425 -0.059450448 -0.022411043 0.063844435 -0.05279252 -0.004578592 0.044818863 -0.09992406
0.040813163 0.013378643 -0.086571075 0.046094343 -0.069627516 0.004877333 -0.035583418 0.014628287
-0.061642822 0.027257787 -0.06780461 -0.108231924 -0.030244827 0.027552107 -0.016964404 -0.077190235
0.039672893 -0.028110132 -0.024814578 -0.042136196 -0.09348463 0.019613238 -0.0725824 -0.042397354
0.054769687 -0.11224915 0.027437324 -0.036672145 0.050643872 -0.06667078 0.012388794 0.010963278
-0.07977118 0.05161778 -0.053270534 0.018593539 -0.09973417 -0.10076186 -0.045243405 0.046256527
-0.05301224 -0.02359402 -0.0014839199 0.05284372 -0.013186769 0.032723304 -0.06271923 -0.03154971
-0.025391763 -0.027407674 0.07378338 -0.06106706 0.0042781527 0.03016298 -0.06940514 -0.0737333
-0.012577053 0.019821582 -0.025234185 -0.021755084 -0.058576047 0.03387117 -0.009545427 0.06761737
0.021947414 -0.01266879 -0.018298602 -0.07379616 0.06126833 -0.010951759 0.0005858731 -0.09278345
00000000: 2fbd d03e a4fe 103e 1306 3fbf d888 643e
00000010: 116c b23e ae2a 0a3f 40c0 1d3d 0dae 34be
00000020: bb38 ab3e 366e ad3e 7e96 bc3e 381f a53e
00000030: 5c9a 3a3e ee85 07bf ab61 a33e c6d7 d63e
00000040: 050f 11bd 6777 b03e 0b73 6fbf b79b f1bd
00000050: 3fb8 253e 7581 ed3e e563 5e3e ca96 4f3e
00000060: c29f cf3e 416b 253f f75f 1bbd f896 d7be
00000070: 8bb6 ed3e b939 e13c 1fa0 883e e865 243d
00000080: 0d14 203e 79f1 c63d 5803 473e 69cf 01bf
00000090: 14bd 173e 1eca 023e 4ca1 ebbc 70f2 b33e
000000a0: 5ef1 733e 87a7 803e 0a0a 9fbd b6dd 023f
000000b0: 186c f9be e537 3abd 357a fd3e 7e2c 95bd
000000c0: b1ac debe c27e 92bd e976 9c3e cd33 22bf
000000d0: 0631 a63e 67d9 143e 3d5d 0dbf 93c9 813e
000000e0: 19ec a43e 54b9 0bbf 45d6 8ebd 29c3 703e
000000f0: 9029 9c3e 876c 083e b54d 5ebe 9a6e 093f
00000100: 5bf7 c53e 355c 8cba c6da 683e fbed 263e
00000110: 5f25 643e 08f2 183f f39c 14be 3661 0ebf
00000120: 85d4 6f3c 1643 e7be fd03 85be 9768 7b3e
00000130: 2915 e33e bdd0 09bf 11c3 bb3e 47d9 953c
00000140: 0570 8dbf be37 c43e dee5 4d3f 7880 9b3e
00000150: 9719 323e c28a 373f c33e a03e 85fe 2cbf
00000160: 5a65 d4be 1f0f 823e 9557 963e dee0 c7be
00000170: 5f15 da3e 9885 903e 1971 b23e 97a2 203e
00000180: 18db bebe 8bce 61be 8650 8f3e 462a df3d
00000190: 0406 00bf 9b72 9c3e 06d1 d63e 586b 80bd
000001a0: 9b25 b3be fe7a 743e b259 3f3e e6df 3b3f
000001b0: 2861 2b3e 8d29 b53e f3f0 073c 2e40 5d3e
000001c0: 98c2 953e 7e86 353d 3592 6d3e f277 733e
000001d0: 98c0 043e f980 5e3e bd91 c93e 497c 36bf
000001e0: dfa0 683d 69fc 9f3e b14e 973e ffd6 993d
000001f0: ed26 c53e a563 5abe 4b09 aabe c3c5 53bd
00000200: 3977 a93c aed7 91bd 26c8 f2bb 0640 bfbd
00000210: 3399 99bd 448d 36bc a35c 9bbd b72e b8b9
00000220: cbf7 cabd da7e 613d 77ff 2abd 2974 5abd
00000230: 4fcd 46bd e0e0 c639 1718 bebd 23b3 52bd
00000240: ef02 a0bd 3d8d 91bd 8266 993b 88d4 a7bd
00000250: 0db4 06bd 0545 0bbd 3fc2 c23c d6a5 9bbd
00000260: 8f1e d2bb 7a6e 293c 300e 98bd d327 533d
00000270: f098 99bd f3ea b0bd abd4 f3bc 8c3a e1bd
00000280: 6d13 65bd 0309 75bd 866d 6e3d 87b5 4ebb
00000290: 5f5e e5bd 254d 2c3d 44d0 b3bd ab4f c7b7
000002a0: be8b 4bbc a9d1 28bd 758a 89bd 2b31 85bc
000002b0: 5b29 13bd 82a9 1a3d cf8f 4e3d 5e81 203c
000002c0: 08dd 3dbc 5082 73bd 5d97 b7bc dfc0 823d
000002d0: f83c 58bd 0308 96bb fc93 373d fca4 ccbd
000002e0: b42b 273d 1932 5b3c 2d4c b1bd 6ccd 3c3d
000002f0: df98 8ebd 09d2 9f3b ebbf 11bd 7cab 6f3c
00000300: 2f7d 7cbd b94b df3c 25dd 8abd b3a8 ddbd
00000310: 00c4 f7bc f5b4 e13c eff8 8abc ea15 9ebd
00000320: 0b80 223d 3847 e6bc f147 cbbc 0197 2cbd
00000330: df74 bfbd f1ab a03c 15a6 94bd d9a8 2dbd
00000340: 2e56 603d e2e2 e5bd 3dc4 e03c 8835 16bd
00000350: f36f 4f3d b18a 88bd 5efa 4a3c 529f 333c
00000360: 135f a3bd 2a6d 533d 3432 5abd 7a51 983c
00000370: 6e41 ccbd 3c5c cebd 2651 39bd 7c77 3d3d
00000380: 5d23 59bd 3f48 c1bc 1780 c2ba a872 583d
00000390: 510d 58bc df08 063d f172 80bd 453a 01bd
000003a0: 6302 d0bc 0f86 e0bc be1b 973d 7421 7abd
000003b0: bf2f 8c3b 5b18 f73c 4824 8ebd 7c01 97bd
000003c0: fc0f 4ebc df60 a23c ecb7 cebc b837 b2bc
000003d0: 70ed 6fbd 7fbc 0a3d 6c64 1cbc fa7a 8a3d
000003e0: 10cb b33c c290 4fbc f3e6 95bc 7122 97bd
000003f0: 80f4 7a3d 026f 33bc 4795 193a 4005 bebd

layer2.bias f4 [64]
-0.5976187 -0.007785785 -0.6497405 -0.02673938 -0.54378754 -0.52312714 -0.5846136 -0.5916934
-0.5277734 -0.6181091 -0.5606051 0.035815187 -0.4980121 -0.10839647 -0.467509 -0.48697066
-0.016853858 0.035135556 -0.4738406 -0.48862156 -0.4522787 -0.41825065 -0.40871245 -0.48128945
-0.07986717 -0.49754822 -0.014078009 -0.43722212 -0.43194875 -0.4483465 -0.5447665 -0.44790125
-0.6630899 0.0007683968 -0.5892533 -0.45278314 -0.5979565 -0.49669203 -0.050147187 -0.46484482
-0.50691843 -0.60973954 -0.596088 -0.5224639 -0.42393684 -0.51097226 -0.4777077 -0.47275066
-0.60084313 -0.09320875 0.0054545556 0.0015062199 -0.034995195 -0.57797265 -0.56867206 -0.434905
-0.41607824 -0.48749256 -0.06431577 -0.0040957127 -0.03368128 -0.49958593 -0.0012241252 -0.5164749
00000000: 8afd 18bf e61f ffbb 6555 26bf 8b0c dbbc
00000010: a935 0bbf a9eb 05bf 3da9 15bf 3879 17bf
00000020: 281c 07bf 663c 1ebf d183 0fbf f2b2 123d
00000030: 71fb febe f8fe ddbd 575d efbe 3854 f9be
00000040: 1a11 8abc 4dea 0f3d 3c9b f2be 9b2c fabe
00000050: 1391 e7be f324 d6be c242 d1be 926b f6be
00000060: 6691 a3bd a4be febe 73a7 66bc 94db dfbe
00000070: 6328 ddbe ac8d e5be d175 0bbf 5053 e5be
00000080: 42c0 29bf 3d6e 493a 4ed9 16bf 31d3 e7be
00000090: ad13 19bf 6b4e febe 2367 4dbd 2400 eebe
000000a0: 68c5 01bf e417 1cbf 3999 18bf 32c0 05bf
000000b0: 400e d9be 14cf 02bf 1b96 f4be 600c f2be
000000c0: dbd0 19bf 3be4 bebd 21bc b23b 5a6c c53a
000000d0: 1f57 0fbd 04f6 13bf 7e94 11bf deab debe
000000e0: 3508 d5be a098 f9be fdb7 83bd 5435 86bb
000000f0: 62f5 09bd bac9 ffbe d372 a0ba b337 04bf

layer3.weight f4 [32, 64]
0.5372859 -0.08954008 0.6083492 0.04187107 0.431453 0.5639652 0.3684378 0.37912878
0.25321534 0.6379132 0.46913114 0.05506648 0.33779508 -0.036411047 0.31781805 0.4572036
0.051389262 -0.07092145 0.48588985 0.3314026 0.27434683 0.25177538 0.45982146 0.4910325
-0.021923376 0.4577628 0.042523377 0.45142052 0.40723848 0.36908326 0.43285665 0.40843973
1.0396025 -0.04956615 0.4705829 0.23699756 0.5122333 0.42063582 0.03148938 0.41858712
0.29009518 0.44471958 0.338986 0.43298146 0.22390826 0.37996805 0.46648812 0.294053
0.36443412 -0.01154637 -0.0224541 -0.000545586 -0.070817396 0.3290016 0.53817487 0.39786732
0.43624723 0.444383 -0.08777796 -0.06221935 -0.08989014 0.4463921 -0.01412689 0.4834698
0.47952524 0.015399422 0.6551821 0.13150293 0.29073796 0.62078696 0.46210998 0.41870052
0.3866548 0.6488596 0.5165681 0.11754226 0.28848034 -0.069835365 0.52120954 0.41267008
0.1363173 -0.0542506 0.33888644 0.37936854 0.31908053 0.45771074 0.29983506 0.48419595
0.09201527 0.4336166 0.04967563 0.40114015 0.3533129 0.36874187 0.5313978 0.29858863
1.1402742 -0.08928212 0.43354195 0.3136864 0.50018466 0.35328305 0.120696 0.34190995
0.27899542 0.51858723 0.2989465 0.5549348 0.22641784 0.44938383 0.45526335 0.48105735
0.34513685 -0.047359582 -0.016267536 0.0774536 0.0069875354 0.44213519 0.5240749 0.4091035
0.48078802 0.2907425 0.091968566 -0.056549225 -0.012139985 0.30615735 0.032531396 0.3610034
0.39445865 0.047760822 0.5660239 -0.08698128 0.4706493 0.4337656 0.4734626 0.33632895
0.385613 0.4642643 0.29801533 -0.09388609 0.40463528 -0.08011105 0.36136442 0.40742
0.11858034 0.14770491 0.4542769 0.33444026 0.48526022 0.46687752 0.31190225 0.54557896
-0.07067528 0.40596414 -0.037573427 0.45586634 0.4981363 0.2673389 0.36343285 0.33641744
0.9051374 -0.04038249 0.32792878 0.41954476 0.4176462 0.35316452 -0.04072059 0.47644272
0.38640794 0.6063301 0.41914764 0.46435252 0.37328374 0.4902877 0.5097074 0.5088564
0.29476863 -0.030794712 0.025880294 0.05139347 -0.08543224 0.57436806 0.37130064 0.39004594
0.3127108 0.47595206 -0.07400696 0.09858604 -0.04862879 0.49715847 0.055928618 0.45502532
0.46024266 -0.031320535 0.64103425 0.15555379 0.48191008 0.5885601 0.5000535 0.35214043
0.44662622 0.4709742 0.3587268 0.042426623 0.43991283 -0.06718289 0.45983216 0.47759736
0.027358277 0.13058774 0.367496 0.4504658 0.4959137 0.44027802 0.401531 0.338512
0.027623013 0.44464934 0.13789153 0.5064135 0.442774 0.42787465 0.5036162 0.4823833
0.9311038 -0.03660847 0.4768845 0.36668977 0.47989193 0.537454 -0.08155113 0.5098377
0.34936115 0.43540525 0.35634062 0.35235807 0.2782669 0.29555145 0.5054914 0.4336426
0.48965982 0.14588185 -0.0625294 0.04219269 0.12832186 0.42197388 0.4587757 0.46307838
0.44936103 0.29439095 0.04726611 -0.04440881 -0.045068935 0.4505589 -0.039086364 0.29226303
00000000: 928b 093f ca60 b7bd c6bc 1b3f 0081 2b3d
00000010: 68e7 dc3e 0660 103f e1a3 bc3e 2b1d c23e
00000020: 71a5 813e 484e 233f f531 f03e 648d 613d
00000030: 7af3 ac3e c023 15bd 0cb9 a23e 9716 ea3e
00000040: 8c7d 523d 443f 91bd 8ec6 f83e 9aad a93e
00000050: 3077 8c3e b4e8 803e b86d eb3e 9d68 fb3e
00000060: a798 b3bc e35f ea3e fe2c 2e3d 9720 e73e
00000070: 9081 d03e 7bf8 bc3e 639f dd3e 031f d13e
00000080: b211 853f e005 4bbd 3ef0 f03e 7daf 723e
00000090: b921 033f 945d d73e 02fb 003d 0d51 d63e
000000a0: 5b87 943e 49b2 e33e 938f ad3e bfaf dd3e
000000b0: 3548 653e 2c8b c23e 88d7 ee3e 1d8e 963e
000000c0: 1c97 ba3e fc2c 3dbc a9f1 b7bc a805 0fba
000000d0: b608 91bd e672 a83e d4c5 093f 44b5 cb3e
000000e0: cc5b df3e 2b86 e33e eec4 b3bd b8d9 7ebd
000000f0: 5218 b8bd 818d e43e 7974 67bc 5b89 f73e
00000100: 5584 f53e db4d 7c3c 04ba 273f b4a8 063e
00000110: 9bdb 943e e5eb 1e3f ae99 ec3e ea5f d63e
00000120: 9ef7 c53e aa1b 263f cf3d 043f ffb9 f03d
00000130: b2b3 933e d805 8fbd fd6d 053f 7e49 d33e
00000140: c396 0b3e e135 5ebd 8682 ad3e 983c c23e
00000150: 865e a33e 1059 ea3e fb83 993e 88e8 f73e
00000160: 8072 bc3d ff02 de3e ac78 4b3d 3e62 cd3e
00000170: 6ee5 b43e bccb bc3e b009 083f 9ce0 983e
00000180: 81f4 913f 8bd9 b6bd 36f9 dd3e 819b a03e
00000190: 1a0c 003f 84e1 b43e 772f f73d d20e af3e
000001a0: 7dd8 8e3e 22c2 043f 840f 993e 3510 0e3f
000001b0: 14da 673e a315 e63e 4718 e93e 264d f63e
000001c0: c7b5 b03e 1ffc 41bd 7f43 85bc fe9f 9e3d
000001d0: b2f7 e43b 8b5f e23e c629 063f 0476 d13e
000001e0: d929 f63e 33dc 943e 045a bc3d 29a0 67bd
000001f0: cae6 46bc a8c0 9c3e a43f 053d 70d5 b83e
00000200: 7cf6 c93e daa0 433d f1e6 103f 3e23 b2bd
00000210: f2f8 f03e 8616 de3e b169 f23e 4f33 ac3e
00000220: 116f c53e 0db4 ed3e 7795 983e 5a47 c0bd
00000230: 5b2c cf3e 4311 a4bd c204 b93e 5b99 d03e
00000240: 40da f23d f53f 173e fb96 e83e c13b ab3e
00000250: 0774 f83e 920a ef3e a7b1 9f3e 10ab 0b3f
00000260: 34be 90bd 88da cf3e 98e6 19bd 5067 e93e
00000270: b90b ff3e a5e0 883e df13 ba3e e83e ac3e
00000280: 16b7 673f 1c68 25bd 48e6 a73e 92ce d63e
00000290: b9d5 d53e fbd1 b43e a2ca 26bd 4df0 f33e
000002a0: 43d7 c53e 7338 1b3f 859a d63e 9dbf ed3e
000002b0: 0c1f bf3e fd06 fb3e 2f7c 023f 6a44 023f
000002c0: eaeb 963e 3145 fcbc e902 d43c f681 523d
000002d0: 19f7 aebd c909 133f 1e1b be3e 1ab4 c73e
000002e0: a11b a03e fdaf f33e f690 97bd 7ae7 c93d
000002f0: fb2e 47bd 8e8b fe3e 6815 653d 14f9 e83e
00000300: eda4 eb3e f649 00bd d21a 243f 7e49 1f3e
00000310: ebbc f63e e0ab 163f 8203 003f c04b b43e
00000320: 31ac e43e 8823 f13e 0aab b73e 8ac7 2d3d
00000330: 413c e13e 2f97 89bd 1f6f eb3e a487 f43e
00000340: 771e e03c cbb8 053e 7028 bc3e 74a3 e63e
00000350: 67e8 fd3e 1f6c e13e 7995 cd3e 7251 ad3e
00000360: a849 e23c 14a9 e33e 7033 0d3e 51a4 013f
00000370: 46b3 e23e 6312 db3e feec 003f f2fa f63e
00000380: d25c 6e3f c3f2 15bd 352a f43e c3be bb3e
00000390: 65b4 f53e 9696 093f 4704 a7bd b984 023f
000003a0: 77df b23e 70ed de3e 4772 b63e 4768 b43e
000003b0: 0079 8e3e 8552 973e e267 013f 6706 de3e
000003c0: b1b4 fa3e 0d62 153e 6a0f 80bd 3ed2 2c3d
000003d0: ce66 033e f60c d83e a6e4 ea3e 9c18 ed3e
000003e0: a612 e63e 69ba 963e 1c9a 413d 03e6 35bd
000003f0: 349a 38bd a8af e63e 0619 20bd 80a3 953e

layer3.bias f4 [32]
-0.53542 -0.353641 -0.4176927 -0.26208225 -0.041549683 0.06390766 -0.4899066 -0.35464376
-0.055269137 -0.25826848 -0.43724096 -0.27570122 -0.35483974 -0.4425055 -0.07016866 -0.12751868
-0.06983695 -0.060764693 -0.35289508 0.001689911 -0.34911847 -0.030159345 -0.053591423 -0.007925497
-0.016720276 -0.07458471 -0.106798574 -0.27572733 0.07449714 -0.40765214 -0.49356687 -0.37378606
00000000: 4911 09bf 6f10 b5be d1db d5be a52f 86be
00000010: 0030 2abd 05e2 823d 0ad5 fabe de93 b5be
00000020: e461 62bd c43b 84be 0cde dfbe b628 8dbe
00000030: 8ead b5be 1590 e2be 96b4 8fbd 4294 02be
00000040: ad06 8fbd 66e4 78bd aaae b4be 0180 dd3a
00000050: a8bf b2be bb10 f7bc ae82 5bbd f2d9 01bc
00000060: f6f8 88bc debf 98bd 36b9 dabd 222c 8dbe
00000070: f591 983d c8b7 d0be ccb4 fcbe e360 bfbe

layer4.weight f4 [12, 32]
0.060332466 0.06869296 -0.036232725 0.03286829 -0.028157435 -0.10959719 0.014715396 0.00062640547
-0.13346264 -0.05117794 -0.11218553 -0.18149844 -0.067995176 0.12621337 0.04437709 0.09470976
0.040309157 -0.16775337 0.045581818 0.15810958 -0.002247883 0.03336494 0.15128444 0.08996149
-0.20351297 -0.079435274 -0.06252335 -0.18674348 0.09239236 -0.12567131 -0.13418633 0.039301507
0.41975358 0.57892466 0.38026446 0.50808084 0.007758336 -0.12991777 0.44680607 0.3656835
-0.11944798 0.46238858 0.3383202 0.45193085 0.5561 0.4016768 -0.1028653 -0.044530224
-0.029067917 0.070730336 0.280152 -0.071618296 0.4561131 0.07697814 -0.033484656 -0.15130624
0.083920315 -0.06841606 -0.005874462 0.56518483 -0.0067884913 0.4277848 0.5944199 0.5800239
0.4378195 0.36360946 0.55600685 0.27650893 0.031570304 -0.07116411 0.5148727 0.58605105
0.05166978 0.5598419 0.4108489 0.45646095 0.36940497 0.49984762 -0.06742813 0.021919683
-0.022945285 -0.12169741 0.5121382 -0.13826486 0.47495812 -0.12653199 -0.06578546 0.08295242
-0.015243146 0.07466698 -0.08254668 0.5055849 -0.12096461 0.5801593 0.45018336 0.5801333
0.2644506 0.5830875 0.48968804 0.5883053 0.029506575 -0.111335084 0.39197463 0.5489824
0.21415973 0.45888454 0.42833462 0.28613898 0.51875895 0.5049555 0.17431909 -0.07627293
-0.111289315 0.082192056 0.5322965 -0.11590357 0.2733784 0.049581036 0.15646021 -0.10955168
-0.030715298 -0.10847615 0.1697691 0.38209176 0.09990617 0.34110224 0.30002916 0.37539893
-0.021869382 0.021428835 -0.013527725 0.010406959 -0.16044387 0.1421721 0.05020172 -0.18627363
0.013280681 0.023268528 -0.17588207 -0.031764943 -0.19855008 -0.123855576 0.08595082 -0.05077229
-0.10816544 0.07161415 0.099029146 0.09299842 -0.096104555 0.09762733 0.083811924 -0.14570025
-0.09855139 0.09190492 0.108788386 0.04456458 0.009402268 0.14672977 -0.108380094 0.05105506
-0.03431684 -0.05014107 -0.16603243 -0.12938417 0.049304727 -0.123074144 -0.06387294 -0.1472233
0.027562352 0.0804641 -0.045748882 -0.09737721 -0.16801472 0.022768207 -0.07702583 0.010651669
-0.0016205149 -0.14498991 0.10163196 -0.07446247 -0.17274372 -0.08628111 0.030054264 0.042947516
0.12410274 0.011827013 -0.15130576 0.07461447 -0.024861384 -0.086134024 -0.035617337 -0.14679281
-0.018852895 -0.0958285 0.007312288 -0.034985658 -0.14550342 0.05604024 -0.021447012 0.0031930455
-0.080177516 0.12900458 -0.11431772 0.16501994 0.13342667 -0.109274894 -0.0833561 0.03002345
-0.17009288 -0.18780813 -0.16718127 0.011587366 0.046835564 -0.052405618 0.15581685 -0.10552857
0.011737986 -0.14503652 0.14332052 -0.025362404 -0.17738485 0.016784 -0.01599946 -0.18237443
-0.03472136 0.035055604 -0.00815289 -0.052500818 0.09090483 -0.023804856 0.07122892 0.020288665
-0.1738749 -0.098731294 0.05548936 -0.15968065 -0.12788652 -0.051632557 0.121399336 0.16557242
-0.17982697 0.11879531 0.0968501 -0.14918557 -0.10647614 -0.068403855 -0.07209354 0.113787666
-0.10301466 -0.19419955 -0.042921633 -0.050820276 -0.11703626 0.068791404 -0.17590132 -0.18589021
00000000: 2d1f 773d e5ae 8c3d c468 14bd e6a0 063d
00000010: 6caa e6bc 7e74 e0bd d818 713c 5c35 243a
00000020: 6eaa 08be f69f 51bd 87c1 e5bd bada 39be
00000030: 0e41 8bbd 143e 013e c0c4 353d 31f7 c13d
00000040: 371b 253d 8ac7 2bbe 00b4 3a3d 7ae7 213e
00000050: 3851 13bb ada9 083d 4fea 1a3e bb3d b83d
00000060: b465 50be f6ae a2bd 3e0c 80bd af39 3fbe
00000070: 3538 bd3d fbaf 00be 2468 09be 9efa 203d
00000080: f1e9 d63e 6834 143f 06b2 c23e 9611 023f
00000090: a439 fe3b 2a09 05be c4c3 e43e de3a bb3e
000000a0: 24a1 f4bd 32be ec3e 4e38 ad3e 7b63 e73e
000000b0: 925c 0e3f 95a8 cd3e 0bab d2bd 5365 36bd
000000c0: d71f eebc 11db 903d 1570 8f3e 9dac 92bd
000000d0: a887 e93e b7a6 9d3d 3527 09bd 06f0 1abe
000000e0: 6ade ab3d b81d 8cbd 8f7e c0bb f4af 103f
000000f0: fe71 debb 9c06 db3e e72b 183f 727c 143f
00000100: e129 e03e 052b ba3e 7756 0e3f 9492 8d3e
00000110: dd4f 013d 7dbe 91bd b3ce 033f 7107 163f
00000120: b1a3 533d cc51 0f3f c95a d23e 40b5 e93e
00000130: a622 bd3e 07ec ff3e c217 8abd e890 b33c
00000140: c0f7 bbbc 7e3c f9bd 7d1b 033f 4e95 0dbe
00000150: b62d f33e 9a91 01be 87ba 86bd f5e2 a93d
00000160: 63be 79bc 00eb 983d 3c0e a9bd 036e 013f
00000170: 4bbc f7bd 5285 143f 6f7e e63e 9e83 143f
00000180: 1266 873e 3945 153f 64b8 fa3e 2d9b 163f
00000190: c6b7 f13c a603 e4bd e6b0 c83e 1c8a 0c3f
000001a0: b04c 5b3e eaf2 ea3e ad4e db3e cf80 923e
000001b0: 63cd 043f c344 013f b480 323e fb34 9cbd
000001c0: a7eb e3bd 4f54 a83d 9544 083f da5e edbd
000001d0: 41f8 8b3e 7c15 4b3d 1b37 203e a25c e0bd
000001e0: a69e fbbc be28 debd f3d7 2d3e 88a1 c33e
000001f0: 9b9b cc3d f4a4 ae3e 6c9d 993e 4a34 c03e
00000200: 6b27 b3bc 868b af3c 64a3 5dbc f381 2a3c
00000210: 664b 24be 9095 113e 52a0 4d3d 84be 3ebe
00000220: 3797 593c a49d be3c 6e1a 34be f51b 02bd
00000230: b650 4bbe fea7 fdbd fc06 b03d 9bf6 4fbd
00000240: d885 ddbd 71aa 923d cbcf ca3d f575 be3d
00000250: 77d2 c4bd d6f0 c73d 96a5 ab3d 7232 15be
00000260: 50d5 c9bd a638 bc3d 72cc de3d 5989 363d
00000270: f80b 1a3c 5440 163e 62f6 ddbd 1c1f 513d
00000280: d18f 0cbd b960 4dbd 6804 2abe 497d 04be
00000290: c1f3 493d 4c0e fcbd d1cf 82bd b4c1 16be
000002a0: 71ca e13c 5dca a43d 2e63 3bbd b46d c7bd
000002b0: 0d0c 2cbe 6484 ba3c b8bf 9dbd 5784 2e3c
000002c0: 7567 d4ba 3c78 14be 6b24 d03d c87f 98bd
000002d0: bbe3 30be 27b4 b0bd 5c34 f63c bce9 2f3d
000002e0: 9429 fe3d 17c6 413c e6ef 1abe 79cf 983d
000002f0: 1aaa cbbc 0967 b0bd 7ce3 11bd db50 16be
00000300: 6371 9abc bc41 c4bd eb9b ef3b 1f4d 0fbd
00000310: d9fe 14be 738a 653d a5b1 afbc 6a42 513b
00000320: 1c34 a4bd c719 043e 691f eabd fdfa 283e
00000330: 00a1 083e 84cb dfbd 9ab6 aabd bdf3 f53c
00000340: d42c 2ebe c650 40be 9131 2bbe f0d8 3d3c
00000350: a6d6 3f3d 46a7 56bd 748e 1f3e 5d1f d8bd
00000360: ae50 403c 7484 14be 9dc2 123e d1c4 cfbc
00000370: 60a4 35be 997e 893c 4d11 83bc 5dc0 3abe
00000380: fc37 0ebd 7796 0f3d b393 05bc 190b 57bd
00000390: 502c ba3d 6702 c3bc 78e0 913d 6a34 a63c
000003a0: 430c 32be a233 cabd d048 633d 5383 23be
000003b0: aff4 02be a97c 53bd 37a0 f83d d18b 293e
000003c0: 9024 38be f54a f33d 5859 c63d 1ac4 18be
000003d0: 2a10 dabd 5217 8cbd c7a5 93bd 8209 e93d
000003e0: 5af9 d2bd 3fdc 46be 98ce 2fbd ec28 50bd
000003f0: b5b0 efbd 82e2 8c3d 7a1f 34be 015a 3ebe

layer4.bias f4 [12]
-0.009867431 -0.33752576 -0.21248975 -0.102579094 0.010638336 0.04821555 0.05866774 0.0046749674
-0.18737634 -0.15829 0.10771002 0.014444123
00000000: 01ab 21bc 2dd0 acbe ea96 59be fd14 d2bd
00000010: 6a4c 2e3c ab7d 453d 964d 703d 7830 993b
00000020: 95df 3fbe c616 22be 1297 dc3d 0ba7 6c3c

layer5.weight f4 [6, 12]
0.20107155 -0.21641742 -0.16685177 -0.18372464 0.0117251035 0.24230753 0.20863025 -0.10028265
-0.13652074 -0.033213776 -0.24371943 -0.09833639 0.03981026 0.24851626 0.41311333 0.48441878
0.22850476 -0.26935756 -0.26903814 0.12608986 0.5072805 0.5548729 0.018868996 0.13817042
-0.04565704 0.033505514 0.10838416 -0.17143297 -0.25839213 -0.027943539 -0.22517194 0.099517
0.21348678 -0.23685232 0.17304815 0.17725548 -0.25379005 -0.05868665 -0.113776244 0.10759135
0.2516896 -0.22179866 -0.006598848 0.031325735 -0.09715242 -0.02878287 -0.21263865 -0.2811741
0.09585726 0.5343015 0.6390263 0.45924842 0.007875457 -0.060293455 0.11175987 -0.07857106
0.49333245 0.54936844 -0.06717685 -0.06256249 0.16938873 -0.18465145 -0.12274882 0.25787765
0.06750683 0.0904369 -0.059393752 -0.2060014 -0.23137158 -0.008805597 -0.05985966 0.0045937276
00000000: b3e5 4d3e 879c 5dbe 31db 2abe 5022 3cbe
00000010: a61a 403c 771f 783e 2ba3 553e fd60 cdbd
00000020: 18cc 0bbe 2b0b 08bd 9691 79be 9764 c9bd
00000030: 1510 233d 0c7b 7e3e 9783 d33e bd05 f83e
00000040: 27fd 693e 3ce9 89be 5ebf 89be b31d 013e
00000050: 23dd 013f 260c 0e3f 2793 9a3c 8c7c 0d3e
00000060: e002 3bbd 143d 093d 84f8 dd3d 208c 2fbe
00000070: f94b 84be d9e9 e4bc 7993 66be 92cf cb3d
00000080: 479c 5a3e 6a89 72be 8933 313e 7682 353e
00000090: c5f0 81be 6a61 70bd 8503 e9bd db58 dc3d
000000a0: 76dd 803e 301f 63be 263b d8bb 6a4f 003d
000000b0: d9f7 c6bd 0eca ebbc f2bd 59be 0df6 8fbe
000000c0: d050 c43d fcc7 083f 3a97 233f 9c22 eb3e
000000d0: 1008 013c 45f6 76bd 5ce2 e43d dde9 a0bd
000000e0: 1296 fc3e 69a3 0c3f 0494 89bd c320 80bd
000000f0: 3d74 2d3e 4515 3dbe bc63 fbbd 8a08 843e
00000100: 0541 8a3d fb36 b93d dd46 73bd 08f2 52be
00000110: acec 6cbe 5a45 10bc 672f 75bd fb86 963b

layer5.bias f4 [6]
0.076309465 -0.39039814 -0.012814002 -0.012085015 0.0023882918 0.10734833
00000000: 2348 9c3d 44e2 c7be d2f1 51bc 3a00 46bc
00000010: e384 1c3b 71d9 db3d

layer6.weight f4 [1, 6]
-0.11936629 0.5923687 -0.030449018 0.0053515346 0.6706679 0.0331839
00000000: 5076 f4bd 7aa5 173f 3870 f9bc ed5b af3b
00000010: e4b0 2b3f d7eb 073d
